code/best_model.pth (torch, 3494 bytes, 6 tensors)

fc1.weight f4 [16, 3]
000000 1f 12 3f 3f c3 96 4a 3f 27 7f 4f be d5 af 87 3f
       0.74637026 0.79136294 -0.20263349 1.0600535
000010 23 28 df 3e b2 68 83 be 14 f8 79 be 7a d7 b6 3e
       0.4358531 -0.25665814 -0.2441104 0.3571127
000020 9f 26 f0 3e 34 16 07 bf 40 d9 ab 3e 1c 4a 67 3e
       0.46904466 -0.52768254 0.33564186 0.22586864
000030 70 64 53 3f 36 a7 f5 3e 03 11 88 bd ef f1 4c bd
       0.8257513 0.47979134 -0.0664387 -0.050035413
000040 b8 68 f2 3e 3b 3d 4d 3e ac 5b dd 3c e0 ea e5 3e
       0.4734552 0.20042889 0.027021252 0.44905758
000050 17 0a c8 be 17 8c 1a bf 04 ed 42 bf c6 7e fa 3d
       -0.39070198 -0.6037001 -0.7614291 0.12231211
000060 21 dc 21 bf 4b f0 e9 be e6 22 8e be c3 18 89 bd
       -0.63226515 -0.4569114 -0.27761 -0.06694176
000070 7c 12 a7 3e 4c a2 23 bf fe fd 25 3e ce c9 58 bf
       0.3263129 -0.6391952 0.16210172 -0.8468293
000080 21 b9 b7 3e 2c d1 cb 3b 1e 95 87 be d9 8c d8 3e
       0.3588343 0.0062200036 -0.26480955 0.42294958
000090 45 d9 df 3e a2 5d 52 3f bc 35 f2 bd de a9 ce ab
       0.4372045 0.8217412 -0.11826655 -1.4684328e-12
0000a0 47 09 c2 23 0e f1 af a4 a4 c2 c9 3e 60 65 2c 3f
       2.1037451e-17 -7.6302515e-17 0.39406312 0.67342186
0000b0 f4 23 65 3e 52 cf 80 3e 91 6f 57 3f b4 cf 10 be
       0.22376996 0.25158173 0.8415461 -0.14141732

fc1.bias f4 [16]
000000 ee 69 b6 3e 9e 8e db 3c 11 bb 13 bf a5 14 3e bd
       0.35627693 0.026801404 -0.57707316 -0.046406407
000010 2e 03 c5 bd 8f 46 cc 3e 12 e9 7a 3e 92 6b 13 3f
       -0.09619747 0.39897582 0.24502972 0.57586014
000020 da f0 92 3e 74 c0 9a 3d 2c 85 32 3f f4 4e 98 be
       0.2869938 0.07556239 0.69734454 -0.29747736
000030 01 38 5e 3e b9 68 6b ba 70 c5 90 3e 95 ca 44 3d
       0.21701051 -0.00089801435 0.28275633 0.04804476

fc2.weight f4 [8, 16]
000000 b7 72 a3 3e ae 1e df 3e 5a 9c 1b 3e 2e 0b c3 3d
       0.31923458 0.43578094 0.15196362 0.09523617
000010 66 bd b5 3e 33 4f b4 3c f3 6a e7 3e 4c 2a 6e be
       0.35496062 0.022010421 0.45198783 -0.23258322
000020 a7 ef a8 bd 00 25 81 bd a7 1a 0a bf 77 5c 57 be
       -0.08248835 -0.06305885 -0.5394692 -0.21031366
000030 df 5a 00 3e ae 1d 2b 19 65 e7 b4 3e 72 45 35 3f
       0.12534665 8.8464866e-24 0.3533279 0.7080909
000040 e0 c8 ea 3d 0a b4 98 3e ab 3c 6e 1e 09 00 00 3e
       0.11464095 0.2982486 1.2612161e-20 0.12500013
000050 31 34 18 3f a5 b9 00 3e 95 78 cb 3e f3 f5 17 bf
       0.5945464 0.12570818 0.39740434 -0.59359664
000060 c8 24 ee be 41 26 96 3e f3 2c b4 be 00 9f dd 14
       -0.46512437 0.2932606 -0.35190544 2.2378012e-26
000070 64 7a de 3e 24 9e 5c a8 b0 36 ab 3d 10 50 b4 3e
       0.43452752 -1.22467446e-14 0.0836004 0.35217333
000080 57 f6 3f 3e 3c b0 a4 bd 8e 92 79 97 dc 33 6f b8
       0.18746315 -0.080414265 -8.0641217e-25 -5.703034e-05
000090 ef 80 cc bd 55 ce da 3c 1c 89 71 bd b7 b8 9e ab
       -0.0998553 0.026709715 -0.05896865 -1.1277844e-12
0000a0 a7 27 03 b9 ab e8 1c be 56 65 40 be 71 9a 24 20
       -0.00012507905 -0.15323131 -0.18788657 1.3942441e-19
0000b0 95 03 6f be 14 91 8b a5 93 34 4e 3e 09 46 1e 34
       -0.2334121 -2.4210965e-16 0.20137243 1.4740375e-07
0000c0 91 f4 3b be 07 20 35 be 88 c3 78 3e 35 76 87 3e
       -0.18355013 -0.17687999 0.24293339 0.26457372
0000d0 71 a6 80 be 35 f7 80 3e b0 38 d6 bc 05 ee 82 3e
       -0.25126985 0.25188604 -0.026150078 0.2557222
0000e0 0e 17 84 3e b1 69 17 3c 9d c0 83 3e 5a af 82 3e
       0.2579884 0.009241507 0.2573289 0.25524408
0000f0 cb ef e6 bd 18 96 2a a1 71 0b 55 be 75 13 32 be
       -0.11276206 -5.779689e-19 -0.20805146 -0.17390235
000100 ee f7 12 3e a6 76 fb bd 25 66 c7 31 52 2d 4e 3c
       0.1435239 -0.1227849 5.8032747e-09 0.012584047
000110 be 6c 90 be 3e 0d e3 3d cf c5 10 be b2 fd 1f 98
       -0.28207964 0.1108651 -0.14137958 -2.0678352e-24
000120 da f4 03 be 3f 22 a0 be 5c 48 c1 3c d7 2e 8e 94
       -0.12886372 -0.31276128 0.023594074 -1.4356811e-26
000130 3c db cd 3c 75 64 81 b0 70 d6 f9 3d 2b ff 77 be
       0.025128953 -9.414537e-10 0.12199104 -0.24218433
000140 dc d3 9c 3e 50 c5 1f 3f 8f dc 89 38 bd 9a f0 3d
       0.30630386 0.6241045 6.573751e-05 0.11748264
000150 2f ad 52 3f 0c 7e df 3d cb 10 d3 3e 5e 03 31 bf
       0.8229551 0.109127134 0.4122375 -0.6914576
000160 fa 03 09 bf cf 7e 32 3e 74 25 85 be a1 19 9f ba
       -0.5352169 0.17431186 -0.26005137 -0.0012138375
000170 97 6b 04 3f 69 c7 8b 17 9d 81 f6 3e 5d 79 d9 3e
       0.5172667 9.033003e-25 0.48145762 0.42475405
000180 f0 25 ea 3e 46 4c 03 3f 3e 8f 87 bc 31 c7 9d bc
       0.4573207 0.5128826 -0.016547795 -0.01926002
000190 8f 09 12 3f d2 1a 0d 3e e4 14 ef 3d af a0 bd bc
       0.57045835 0.13779762 0.116739064 -0.023147909
0001a0 6a fc 60 be f8 3d 87 3c 5f ca af be cc 8e b4 bd
       -0.21971288 0.016509041 -0.34334084 -0.08816299
0001b0 fc 5a d5 3e d0 7f 0b 15 7f 23 dc 3d ba 1d cd 3e
       0.41670978 2.8171653e-26 0.10748958 0.40061742
0001c0 52 31 12 be 25 d0 03 17 92 4a 19 3e 2b ab 9b bd
       -0.14276627 4.25911e-25 0.14969853 -0.07601007
0001d0 32 25 b0 14 d8 9e 2e 3d 56 10 7a bd 08 8e 14 be
       1.778613e-26 0.042631954 -0.061050735 -0.14507306
0001e0 a8 1d 8a 3d 8a 0c c0 3c 0b 30 1c 3d b3 b5 b5 bd
       0.06743938 0.02344348 0.038131755 -0.08872547
0001f0 d5 ef 82 bc 0c 16 0e 13 a5 77 6b bb 7d 3b b8 bb
       -0.015983501 1.793379e-27 -0.0035929468 -0.005622326

fc2.bias f4 [8]
000000 8e 14 fc 3d 43 1f a3 3e 99 c6 68 bd ee 94 82 3e
       0.12308608 0.31859788 -0.056830022 0.2550425
000010 0d 70 79 bd cc b9 56 3e fe 1e 0f bd 59 c7 fc ba
       -0.060897876 0.20969313 -0.034941666 -0.0019285484

fc3.weight f4 [2, 8]
000000 28 88 2f bf 50 b4 00 bf 91 91 82 3e 98 c1 83 3e
       -0.6856713 -0.50275135 0.25501683 0.25733638
000010 1b e4 8a bd 87 2d 27 bf bd 68 0a bf 86 4c 88 be
       -0.06781789 -0.65303844 -0.5406607 -0.26620883
000020 82 75 80 3e 7f c1 fb 3e c3 83 86 3e 5d 9e 83 be
       0.2508965 0.49171063 0.262724 -0.2570676
000030 97 7e 85 be 66 cb 69 3e aa d3 89 3e 75 13 95 3e
       -0.26073143 0.22831497 0.269193 0.29116407

fc3.bias f4 [2]
000000 ff 02 7f 3f 13 ad 84 bf
       0.99613947 -1.0365318
